skip-gram-classification-model.pt (torch, 886325 bytes, 6 tensors)

weight_ih_l0 f4 [512, 300]
0.14789575 -0.076256424 -0.16808364 -0.11001459 -0.006698553 -0.16249116 0.006021444 -0.035798937
0.030985203 0.21636125 -0.05072315 0.022649352 -0.1978283 -0.043306183 0.15835539 0.14895996
0.012251172 0.06952277 -0.052673254 0.03614034 -0.050860416 0.15124424 -0.25575686 0.26228294
0.1658928 -0.10521445 0.08352477 -0.008543384 -0.092196845 -0.1439153 -0.024389317 -0.04401277
-0.118038975 -0.091952346 0.106865816 0.03347889 0.18061776 -0.08209207 0.07385241 -0.07920618
0.11519888 -0.011498333 -0.069635674 0.03984197 0.072813146 0.16665867 0.14058135 -0.072049946
0.06357036 0.018492855 0.0040737335 0.092209496 -0.040172692 -0.13831492 0.08340691 -0.008990169
-0.26410648 -0.2507461 -0.01773509 -0.03606922 -0.14229442 -0.07185554 0.14873931 -0.18459906
-0.2476374 -0.027548803 -0.0031360947 -0.08744372 0.07709569 0.10079221 -0.106623866 -0.09118264
-0.010408267 -0.056079 0.0041110795 0.15762568 0.015585356 0.07602156 -0.023542052 -0.04200456
-0.013252918 -0.16432604 0.13759564 0.11271411 0.0062452652 -0.12763317 0.111112915 0.14686918
-0.019717319 0.011489009 0.08528565 -0.028946038 -0.100837775 -0.059086118 0.18658863 0.12255715
-0.19232726 0.021321485 0.15418388 -0.17238489 0.28036574 0.077593185 -0.06591069 0.030367333
0.061965805 0.08321429 -0.1191168 -0.0067701573 0.0469274 -0.23282608 -0.170182 -0.0063789007
-0.05411985 -0.13854447 -0.10586359 0.059226677 0.20027493 0.026594592 -0.026340816 -0.06594912
-0.15995361 0.13362682 0.039393358 0.106766835 -0.015668338 0.004365957 0.11054881 -0.043780718
0.007429567 0.008615911 0.015133361 0.060062557 0.08352441 -0.15794475 -0.10509512 0.0077163773
-0.122059524 -0.04826929 -0.14400893 0.29341802 -0.09488639 -0.08393075 -0.16659793 0.039051663
0.027047846 0.17613944 0.028159559 -0.023395512 0.05777766 0.07141737 0.043570023 -0.035103075
0.109689824 0.043585196 0.10096927 0.018815255 -0.076606475 -0.04390042 -0.049821995 0.15150644
-0.003985634 0.024493093 -0.06620198 -0.02117592 0.00066335435 0.13481338 0.037616752 -0.002899251
-0.06273513 -0.12524688 0.13976893 0.08919654 -0.04691889 0.09751094 0.11554939 -0.051492892
0.03386939 0.036669567 -0.044249967 -0.11307393 -0.07965907 -0.21043852 -0.105209865 0.02269332
-0.0020310448 -0.024919044 -0.032563776 -0.034746148 0.14571822 0.19942711 -0.032784916 0.08568522
0.03762321 0.051753983 0.04631428 0.026154116 0.019672843 0.03389669 -0.037154127 0.09407419
0.01418683 -0.11397233 -0.009210643 -0.11154936 0.15121147 0.011520366 -0.09725897 -0.046860155
0.19050759 -0.07397846 -0.02392883 0.06789193 0.025886621 -0.14673239 -0.056516167 0.09361944
0.103064865 -0.008602807 0.1655649 0.17855676 -0.09641253 0.115784 0.08962764 -0.06699389
0.118699245 0.27396324 0.107883625 0.08205631 0.006057531 0.09972404 -0.00011814488 -0.018462151
0.059329588 0.100302115 0.02263646 0.04809256 0.13864774 0.06059183 -0.11687405 0.02680215
-0.03165983 -0.15245697 -0.03225676 0.05411809 0.09665713 0.27725798 0.06489501 0.0674033
-0.04281569 -0.14398667 -0.059982568 -0.057158384 0.08598779 0.07150396 0.07807828 -0.03166244
00000000: fc71 173e 542c 9cbd 1e1e 2cbe 544f e1bd
00000010: 897f dbbb 1564 26be 894f c53b e8a1 12bd
00000020: aed4 fd3c ce8d 5d3e 14c3 4fbd 228b b93c
00000030: 8093 4abe d361 31bd ea27 223e f688 183e
00000040: 24b9 483c f461 8e3d e9bf 57bd e507 143d
00000050: 0353 50bd c5df 1a3e 90f2 82be f349 863e
00000060: cddf 293e ac7a d7bd 090f ab3d 8df9 0bbc
00000070: b3d1 bcbd 885e 13be 1bcc c7bc bc46 34bd
00000080: 6bbe f1bd 8351 bcbd 77dc da3d 2921 093d
00000090: ddf3 383e e31f a8bd ef3f 973d da36 a2bd
000000a0: 64ed eb3d 8163 3cbc 269d 8ebd 5531 233d
000000b0: 0f1f 953d 92a8 2a3e 8ff4 0f3e ec8e 93bd
000000c0: 2d31 823d 547e 973c f47c 853b 55d8 bc3d
000000d0: 1f8c 24bd 6da2 0dbe 3ed1 aa3d 804b 13bc
000000e0: f738 87be cb61 80be 2e49 91bc 52bd 13bd
000000f0: a1b5 11be ff28 93bd 1e4f 183e 8907 3dbe
00000100: a994 7dbe 07ae e1bc f086 4dbb b115 b3bd
00000110: 58e4 9d3d 256c ce3d 9d5d dabd f7bd babd
00000120: 7087 2abc 18b3 65bd 3cb6 863b a068 213e
00000130: b959 7f3c 31b1 9b3d 43db c0bc f90c 2cbd
00000140: c422 59bc 1645 28be dfe5 0c3e a8d6 e63d
00000150: 15a5 cc3b 45b2 02be 2b8f e33d e064 163e
00000160: 3786 a1bc 653c 3c3c 3eaa ae3d 3e20 edbc
00000170: 0984 cebd 4904 72bd 1711 3f3e 3eff fa3d
00000180: 70f1 44be 65aa ae3c 61e2 1d3e aa85 30be
00000190: 198c 8f3e 2de9 9e3d 2ffc 86bd eac4 f83c
000001a0: dbcf 7d3d 416c aa3d 82f3 f3bd 32d8 ddbb
000001b0: f236 403d f669 6ebe 3144 2ebe 1906 d1bb
000001c0: c7ac 5dbd 9ade 0dbe 03cf d8bd ac97 723d
000001d0: df14 4d3e e7dc d93c b2c8 d7bc 5510 87bd
000001e0: e1ca 23be 78d5 083e ee5a 213d 92a8 da3d
000001f0: e35a 80bc 4d10 8f3b 6a67 e23d 6953 33bd
00000200: ba73 f33b c029 0d3c ebf1 773c 2804 763d
00000210: d90e ab3d 45bc 21be 1c3c d7bd aad9 fc3b
00000220: 58fa f9bd 05b6 45bd 1477 13be e33a 963e
00000230: cc53 c2bd e3e3 abbd a698 2abe a3f4 1f3d
00000240: 7293 dd3c e65d 343e e0ae e63c f2a7 bfbc
00000250: 45a8 6c3d 4543 923d 7b76 323d 3ec8 0fbd
00000260: 0fa5 e03d 6486 323d fac8 ce3d 7322 9a3c
00000270: dbe3 9cbd edd0 33bd 2612 4cbd 8124 1b3e
00000280: ec99 82bb bda5 c83c e794 87bd 1f79 adbc
00000290: f5e4 2d3a 850c 0a3e 0614 1a3d 5c01 3ebb
000002a0: 477b 80bd b840 00be 961f 0f3e adac b63d
000002b0: 062e 40bd d1b3 c73d 29a5 ec3d 36ea 52bd
000002c0: a1ba 0a3d d432 163d 743f 35bd 4e93 e7bd
000002d0: 4b24 a3bd 327d 57be 4578 d7bd 57e7 b93c
000002e0: 471b 05bb 0623 ccbc 9861 05bd fa51 0ebd
000002f0: 2837 153e 9f36 4c3e 7a49 06bd bc7b af3d
00000300: cc1a 1a3d fcfb 533d 0bb4 3d3d 2841 d63c
00000310: f128 a13c 41d7 0a3d ed2e 18bd f8a9 c03d
00000320: e16f 683c 536a e9bd 3de8 16bc fe73 e4bd
00000330: 2ed7 1a3e ebbf 3c3c b62f c7bd 6ff0 3fbd
00000340: 6c14 433e 0582 97bd 6506 c4bc ed0a 8b3d
00000350: 2e10 d43c 0441 16be 7f7d 67bd 8dbb bf3d
00000360: ac13 d33d caf2 0cbc d889 293e 95d7 363e
00000370: ef73 c5bd 2920 ed3d b28e b73d 1834 89bd
00000380: 9718 f33d e944 8c3e 17f2 dc3d 230d a83d
00000390: 417e c63b 1e3c cc3d 8dc4 f7b8 f03d 97bc
000003a0: 9503 733d 326b cd3d 1970 b93c b4fc 443d
000003b0: acf9 0d3e 242f 783d a95b efbd 2f90 db3c
000003c0: bdad 01bd ae1d 1cbe aa1f 04bd eeaa 5d3d
000003d0: 2cf4 c53d c2f4 8d3e ade7 843d be0a 8a3d
000003e0: 815f 2fbd 3e71 13be 48b0 75bd e91e 6abd
000003f0: 5e1a b03d ab70 923d 81e7 9f3d 7ab0 01bd

weight_hh_l0 f4 [512, 128]
-0.09537011 -0.017028708 -0.011512484 -0.06028521 -0.026517304 -0.063216254 -0.011937671 0.08561079
-0.025450421 -0.083697185 -0.05466806 -0.012595064 0.034435846 0.14201812 -0.06691732 -0.0063247015
-0.064486004 0.035711102 0.0513779 0.04704111 0.08608477 -0.04967112 0.06365012 -0.04051123
0.04056093 0.06943389 0.020157997 -0.012617298 0.040092975 0.08648757 0.08559905 0.06470565
-0.022749783 0.032984953 -0.09561728 0.064689696 -0.005135786 -0.08762452 -0.015886873 0.0646578
-0.114255086 -0.08765454 0.00084313477 0.07747778 0.010939919 0.10952949 -0.06093159 0.04520728
-0.07753157 -0.03784232 0.07101646 0.053286303 -0.06253208 -0.03564466 0.16718246 0.030106204
0.081123166 0.21039817 0.1745696 -0.0070022205 0.04509502 -0.035414875 0.010750258 0.05449941
0.17481449 -0.061315607 0.13687903 -0.08990343 -0.035411015 -0.011038862 0.059775505 -0.07333871
0.058775637 0.06780335 -0.08292401 0.057181437 0.035127867 -0.0900226 0.18289429 0.09128675
-0.08417507 -0.023004085 -0.12630606 0.019253517 0.088231236 0.09464899 -0.08271623 -0.07220663
-0.07520863 0.06339776 -0.015688106 0.08586709 0.059631776 -0.04817373 0.090598844 -0.07588051
0.06442143 0.041337833 0.055717077 -0.017415978 -0.007486192 -0.03780716 0.019356683 0.03172455
-0.15227205 0.11114423 0.027941564 0.07130379 -0.09403195 0.07881863 0.074764356 0.059666917
0.03452635 0.038924314 0.031815305 -0.060525313 -0.069162056 0.057438325 -0.017638657 0.009556492
-0.00094050146 -0.08340753 0.023098292 -0.07039969 -0.09605252 -0.013782579 -0.084785014 0.04076495
-0.062315732 0.04540595 0.06838617 0.09870547 0.060595464 0.0522409 -0.030667087 -0.10884017
-0.12364878 -0.13657512 -0.013447725 -0.013124431 0.05796817 -0.103841946 -0.006011726 0.08356893
-0.054618936 0.028183667 -0.02304686 -0.03482581 -0.09807454 -0.017916324 -0.054487675 -0.1455607
-0.108700395 -0.022535153 0.016171746 -0.097726375 0.039212376 0.19395195 -0.07203553 0.06492525
0.009470957 -0.10257245 -0.100308344 0.004651269 0.06576534 -0.08637241 0.036446463 -0.077416286
-0.044804744 0.065519355 0.06470536 -0.07848676 -0.025112785 0.024640597 -0.051780477 0.06353175
0.016039902 0.039677363 -0.11134931 0.04036824 0.061451748 0.0077724177 0.19023232 -0.06497058
0.12992978 0.11803463 0.16701524 -0.05804714 0.027659679 0.09116201 0.0006956199 0.057001904
0.057281733 0.005774721 -0.018057054 0.042070255 -0.034697454 -0.015903475 0.00081334496 -0.0028220646
0.025595276 0.11683816 -0.004543543 -0.031577293 -0.12016423 0.06940265 -0.0016075771 0.02085166
-0.03385786 -0.029728087 -0.059299417 -0.05946857 0.043634336 -0.06082598 0.03693813 -0.03713597
-0.0527424 -0.059683897 0.026236927 0.030494489 -0.040501617 0.13022377 -0.1225131 -0.13370828
0.08709653 0.101810314 -0.040570274 0.024447942 0.0060295938 0.047111474 -0.0047864933 -0.022416439
-0.008496942 -0.07701256 -0.069729716 0.0044313855 -0.028725814 -0.046075113 -0.075132534 -0.056007545
0.16458751 -0.03201868 0.18286493 -0.09009864 0.05608662 -0.1144356 0.07485618 0.026473718
-0.027708232 0.13941534 -0.09594654 -0.023049746 0.08163855 -0.06415348 0.045684565 0.033838388
00000000: 6751 c3bd ca7f 8bbc dc9e 3cbc a0ed 76bd
00000010: d13a d9bc 8677 81bd 3996 43bc b654 af3d
00000020: 677d d0bc 6e69 abbd 9eeb 5fbd 875b 4ebc
00000030: 9a0c 0d3d 336d 113e f30b 89bd 713f cfbb
00000040: 3d11 84bd ce45 123d a271 523d 2eae 403d
00000050: 364d b03d f273 4bbd fe5a 823d 1aef 25bd
00000060: 3823 263d 5b33 8e3d 6222 a53c c9b8 4ebc
00000070: 8838 243d 6520 b13d 8e4e af3d 6584 843d
00000080: c15d babc 3b1b 073d fed2 c3bd 087c 843d
00000090: 184a a8bb 7c74 b3bd 3025 82bc 4f6b 843d
000000a0: 92fe e9bd 3984 b3bd d105 5d3a acac 9e3d
000000b0: 593d 333c ff50 e03d 6793 79bd 452b 393d
000000c0: dfc8 9ebd 8c00 1bbd 1471 913d bd42 5a3d
000000d0: d210 80bd 2300 12bd e131 2b3e 49a1 f63c
000000e0: e723 a63d 9e72 573e 60c2 323e e272 e5bb
000000f0: 8eb5 383d 300f 11bd da21 303c c63a 5f3d
00000100: 9202 333e 1326 7bbd 042a 0c3e 4a1f b8bd
00000110: 240b 11bd 58dc 34bc 29d7 743d 9b32 96bd
00000120: b9be 703d 7cdc 8a3d 10d4 a9bd 1537 6a3d
00000130: 3de2 0f3d c55d b8bd a448 3b3e 8cf4 ba3d
00000140: fb63 acbd 1073 bcbc 6056 01be 8db9 9d3c
00000150: 94b2 b43d 54d7 c13d 2067 a9bd 12e1 93bd
00000160: fb06 9abd afd6 813d 5884 80bc 16db af3d
00000170: 7340 743d d151 45bd e38b b93d 3e67 9bbd
00000180: 62ef 833d dc51 293d 9737 643d f4ab 8ebc
00000190: bb4e f5bb aedb 1abd e891 9e3c 9af1 013d
000001a0: 34ed 1bbe 969f e33d b5e5 e43c b907 923d
000001b0: d393 c0bd a96b a13d 0e1e 993d 4c65 743d
000001c0: 816b 0d3d 1a6f 1f3d c450 023d 64e9 77bd
000001d0: d6a4 8dbd 7344 6b3d f27e 90bc d592 1c3c
000001e0: fc8b 76ba 91d1 aabd a138 bd3c b62d 90bd
000001f0: 2fb7 c4bd 54d0 61bc c4a3 adbd 26f9 263d
00000200: c83e 7fbd 97fb 393d 0c0e 8c3d 1826 ca3d
00000210: f332 783d 8efa 553d 8b39 fbbc 98e7 debd
00000220: 923b fdbd 59da 0bbe d953 5cbc da07 57bc
00000230: 0870 6d3d 16ab d4bd 03fe c4bb 3026 ab3d
00000240: 1bb8 5fbd 6fe1 e63c c5cc bcbc 82a5 0ebd
00000250: 4edb c8bd 41c5 92bc 782e 5fbd dd0d 15be
00000260: 509e debd a49b b8bc 9c7a 843c c424 c8bd
00000270: 289d 203d 579b 463e 5d87 93bd 88f7 843d
00000280: 132c 1b3c 8111 d2bd 766e cdbd ac69 983b
00000290: fbaf 863d 05e4 b0bd e348 153d 6e8c 9ebd
000002a0: 2e85 37bd 032f 863d 3e84 843d abbd a0bd
000002b0: 54b9 cdbc 14db c93c c417 54bd ef1c 823d
000002c0: 1d66 833c bb84 223d 1b0b e4bd 2b59 253d
000002d0: d4b4 7b3d c4af fe3b 43cc 423e 4c0f 85bd
000002e0: 500c 053e 24bc f13d 0b06 2b3e d6c2 6dbd
000002f0: 8d96 e23c 26b3 ba3d 435a 363a d47a 693d
00000300: 40a0 6a3d df39 bd3b 63ec 93bc dc51 2c3d
00000310: eb1e 0ebd 0148 82bc a836 553a 63f2 38bb
00000320: 2fad d13c d848 ef3d 00e2 94bb 3157 01bd
00000330: aa18 f6bd fa22 8e3d 56b5 d2ba 1ad1 aa3c
00000340: 8aae 0abd 5188 f3bc f2e3 72bd 5195 73bd
00000350: ebb9 323d aa24 79bd 704c 173d e31b 18bd
00000360: 6a08 58bd 1a77 74bd d3ee d63c 94cf f93c
00000370: 06e5 25bd 6159 053e 26e8 fabd d3ea 08be
00000380: aa5f b23d ed81 d03d 042d 26bd 0d47 c83c
00000390: e693 c53b f6f7 403d 04d8 9cbb aea2 b7bc
000003a0: c236 0bbc c3b8 9dbd 74ce 8ebd 2835 913b
000003b0: 6652 ebbc 42b9 3cbd 16df 99bd 2b68 65bd
000003c0: a189 283e 0526 03bd f240 3b3e a385 b8bd
000003d0: 15bb 653d 365d eabd 324e 993d 69df d83c
000003e0: 60fc e2bc e5c2 0e3e 9f7f c4bd d2d2 bcbc
000003f0: 1d32 a73d e662 83bd bd1f 3b3d 1f9a 0a3d

bias_ih_l0 f4 [512]
-0.0862927 -0.08986602 -0.057314124 -0.05609924 -0.03055381 -0.12986448 -0.022061316 -0.07976388
0.0313572 -0.21341835 -0.08793367 -0.103123054 -0.06293871 -0.03918398 -0.05894295 -0.035032954
-0.16333757 -0.08949979 0.06681416 0.0026012764 0.07404833 0.1041813 -0.14360666 -0.09345049
-0.16492967 0.03429525 -0.040719785 0.06638764 -0.07326209 -0.0964578 0.009277069 0.07406658
-0.10046265 0.010705423 -0.04083538 -0.1333345 -0.20292915 0.009166325 0.024800502 -0.074395835
0.0173684 0.042493474 -0.01771847 -0.07007459 -0.019124229 -0.055371672 -0.025661698 -0.032363076
-0.005606198 -0.0023317924 0.044024706 0.025633773 0.1821111 0.04331327 -0.24284737 0.02969369
-0.10687148 -0.23699388 -0.20863138 0.12073628 -0.004901382 0.15105084 -0.07802302 0.06070481
-0.24017175 -0.17800821 -0.12897336 -0.14270344 0.028265635 0.035276122 -0.035243336 -0.044948537
-0.10346001 0.050198246 -0.07800406 -0.0032620495 -0.063449554 0.031340692 -0.05504912 0.06358436
-0.09992232 -0.10138449 -0.16414878 -0.058710378 -0.11847095 0.0017564776 -0.13357385 0.07445265
-0.1678559 -0.11377533 0.047325134 -0.0007177491 0.029271645 -0.07937339 0.008967219 -0.047453478
-0.13394415 -0.041701607 0.014017387 -0.088477775 -0.10924406 -0.098847315 -0.04631291 0.02220353
0.04424168 0.04338294 -0.057899922 0.013040709 -0.087221354 0.041087516 -0.12890658 0.078535296
-0.122563995 0.17497647 -0.12477738 0.10958637 -0.1168689 0.0023313405 -0.044777192 0.03850871
-0.01732973 0.04387767 -0.10331571 -0.057021372 -0.11202031 -0.04061046 -0.100814134 0.008431131
-0.06286066 -0.04750902 -0.10121716 0.1849154 0.024108864 -0.0023835648 0.17938402 0.017809194
-0.023323812 0.06747958 0.0063290433 0.2045857 0.026523856 0.16479966 0.058161665 -0.006076333
-0.0063151415 0.038444605 0.0403893 -0.011073514 0.027460018 0.1501464 0.24726608 0.005387414
0.23717575 0.006563005 0.0925037 -0.07140804 0.15023357 0.02172632 0.09937654 -0.1039133
0.015395855 0.2236829 0.006329377 0.17375335 0.13752782 -0.0104259625 0.073157154 0.05758485
-0.13342777 0.12510215 0.13653363 0.11349032 0.038627706 -0.11668092 -0.011701083 0.21204907
0.010732091 0.18522437 0.10265051 0.049171276 0.12310519 0.023978816 0.20179121 0.009835303
0.14609271 -0.03483253 0.09197097 0.07200054 0.104206994 0.013150942 0.12550108 0.048701823
0.2647933 -0.06960122 -0.008738502 0.090697974 -0.018088724 0.13248082 0.03620368 0.15578136
0.037959144 -0.02744045 0.0042530512 0.06625717 0.11444092 -0.04474367 -0.0019604245 -0.0145295635
-0.006837207 0.22382946 0.07193135 0.033844795 0.12750326 -0.019207414 -0.019169902 -0.024311578
0.1075196 0.08172621 0.07311778 0.001496018 0.032551657 0.15257512 -0.10526333 0.004898907
-0.047109578 -0.09849747 -0.02643358 0.07645052 -0.0015215005 -0.092520855 0.1492797 -0.13173619
-0.18820603 -0.028909272 -0.12603426 0.14115474 -0.09223111 -0.006930198 0.02178395 -0.01675077
-0.01138824 0.017919391 -0.08994608 0.07148946 -0.06596942 -0.037471462 0.222244 -0.049498223
0.065368466 -0.016432108 -0.063728884 0.018776981 -0.12481561 0.08641905 -0.095850565 -0.118341796
00000000: 3aba b0bd ad0b b8bd 37c2 6abd 51c8 65bd
00000010: fc4b fabc 32fb 04be efb9 b4bc 3f5b a3bd
00000020: 6870 003d 578a 5abe 9116 b4bd 2e32 d3bd
00000030: 03e6 80bd 627f 20bd 2a6e 71bd b77e 0fbd
00000040: f741 27be aa4b b7bd ddd5 883d 2d7a 2a3b
00000050: a7a6 973d 015d d53d a00d 13be f862 bfbd
00000060: 53e3 28be 2d79 0c3d cac9 26bd 3ef6 873d
00000070: 6f0a 96bd ab8b c5bd d9fe 173c 38b0 973d
00000080: 5dbf cdbd cc65 2f3c 0043 27bd d788 08be
00000090: a9cc 4fbe 5b2e 163c 6c2a cb3c d85c 98bd
000000a0: 2d48 8e3c a30d 2e3d 5326 91bc 4483 8fbd
000000b0: 6aaa 9cbc 68cd 62bd 7b38 d2bc 258f 04bd
000000c0: 33b4 b7bb fcd0 18bb 4053 343d ebfd d13c
000000d0: 557b 3a3e 4169 313d fbac 78be 2e40 f33c
000000e0: 6fdf dabd 86ae 72be 77a3 55be 9544 f73d
000000f0: c69b a0bb 12ad 1a3e 88ca 9fbd 9ba5 783d
00000100: 95ef 75be c947 36be 9811 04be da20 12be
00000110: 558d e73c b27d 103d 515b 10bd f51b 38bd
00000120: d7e2 d3bd ad9c 4d3d 98c0 9fbd 1cc8 55bb
00000130: d7f1 81bd 195f 003d 307b 61bd 8438 823d
00000140: 13a4 ccbd aca2 cfbd 9e16 28be 4b7a 70bd
00000150: e6a0 f2bd 9c39 e63a 95c7 08be a27a 983d
00000160: 6be2 2bbe 0a03 e9bd 00d8 413d 5427 3cba
00000170: 17cb ef3c 848e a2bd 3eeb 123c 945e 42bd
00000180: a828 09be 4ecf 2abd 2fa9 653c d633 b5bd
00000190: 5abb dfbd 7670 cabd 9bb2 3dbd 2de4 b53c
000001a0: c436 353d 4fb2 313d 7828 6dbd b3a8 553c
000001b0: 1ca1 b2bd 624b 283d 1600 04be 1dd7 a03d
000001c0: d502 fbbd 082d 333e 488b ffbd d26e e03d
000001d0: f658 efbd 67c9 183b 4a68 37bd 4fbb 1d3d
000001e0: 14f7 8dbc 12b9 333d 3097 d3bd 3e8f 69bd
000001f0: e76a e5bd 2757 26bd a477 cebd ba22 0a3c
00000200: 17bd 80bd d198 42bd f14a cfbd 765a 3d3e
00000210: f47f c53c 9535 1cbb 72b0 373e 96e4 913c
00000220: 9411 bfbc bc32 8a3d dd63 cf3b ea7e 513e
00000230: 8f48 d93c 3ec1 283e ed3a 6e3d fa1b c7bb
00000240: 3fef cebb 1778 1d3d 406f 253d af6d 35bc
00000250: d5f3 e03c fabf 193e 5233 7d3e e788 b03b
00000260: 33de 723e 7a0e d73b 9472 bd3d 613e 92bd
00000270: d4d6 193e 65fb b13c ed85 cb3d 7fd0 d4bd
00000280: e53e 7c3c 210d 653e aa66 cf3b 66ec 313e
00000290: 18d4 0c3e a8d1 2abc 6bd3 953d 17de 6b3d
000002a0: 4aa1 08be c71a 003e 79cf 0b3e 9d6d e83d
000002b0: 1638 1e3d 68f6 eebd e6b5 3fbc 6423 593e
000002c0: a7d5 2f3c 75ab 3d3e 6e3a d23d d267 493d
000002d0: 931e fc3d 396f c43c 5ba2 4e3e 4024 213c
000002e0: 5499 153e 8eac 0ebd 475b bc3d 0575 933d
000002f0: 7a6a d53d 0c77 573c 5b83 003e 907b 473d
00000300: fd92 873e 168b 8ebd ef2b 0fbc dcbf b93d
00000310: ce2e 94bc 0da9 073e 4f4a 143d 2685 1f3e
00000320: 0c7b 1b3d cbca e0bc 2e5d 8b3b d7b1 873d
00000330: 0060 ea3d 2345 37bd 777a 00bb 680d 6ebc
00000340: a60a e0bb 8d33 653e be50 933d d7a0 0a3d
00000350: 3790 023e de58 9dbc 330a 9dbc 1329 c7bc
00000360: 3c33 dc3d 1260 a73d c6be 953d 0916 c43a
00000370: e354 053d a73c 1c3e 4d94 d7bd 0387 a03b
00000380: f9f5 40bd 0bb9 c9bd 3c8b d8bc 1792 9c3d
00000390: 166d c7ba 937b bdbd c7dc 183e dae5 06be
000003a0: 15b9 40be 23d3 ecbc 200f 01be de8a 103e
000003b0: aae3 bcbd b716 e3bb 4174 b23c e938 89bc
000003c0: be95 3abc b0cb 923c a735 b8bd 1169 923d
000003d0: fa1a 87bd ad7b 19bd ee93 633e a6be 4abd
000003e0: e7df 853d a19c 86bc 4a84 82bd 2fd2 993c
000003f0: 549f ffbd 79fc b03d 4d4d c4bd 2f5d f2bd

bias_hh_l0 f4 [512]
-0.072458856 0.013391373 -0.045332745 -0.16541281 -0.05634636 -0.037243184 0.027852148 -0.09413274
0.04855055 -0.11492918 -0.019657727 -0.14488718 -0.018649355 -0.121884264 -0.03856209 -0.07629377
-0.030058231 -0.020115638 0.0008017934 -0.07144647 0.07468163 -0.049804524 -0.12017788 0.046479687
-0.12693264 -0.035285085 0.04099334 -0.05154938 0.009525347 -0.13126035 0.0061851135 0.017658096
0.007871608 -0.09760938 -0.12390423 0.00916814 -0.122252695 -0.033401366 0.09351029 0.02397142
-0.07109023 0.028244393 -0.018082244 -0.19284528 0.05295919 -0.037620466 0.01816291 -0.12494304
-0.02187074 0.05951511 0.13644819 0.0109852115 0.08670268 0.022848222 -0.13962658 -0.1158691
-0.07175197 -0.13957223 -0.08877459 0.0014550772 0.014088138 0.17473017 -0.07758053 0.029637525
-0.2448276 -0.107048474 -0.056142252 -0.1844239 -0.068548195 0.076054364 0.018641924 -0.105304025
-0.082491085 -0.011161096 0.0039960453 -0.060971305 -0.068875656 -0.012631344 0.03799741 -0.08631861
-0.10840193 -0.08262776 -0.037657745 0.087838985 -0.118634 -0.052281484 -0.04476113 -0.006812345
-0.05104655 -0.08757379 0.007118928 -0.108129345 -0.09127774 0.0045174235 0.059034474 -0.025953246
-0.11581695 -0.03237983 -0.06065311 0.0286253 0.0064888718 0.0406716 -0.16789518 0.044243086
-0.025392383 0.064017914 0.04170416 -0.015008061 -0.07135331 0.058805257 -0.0945497 0.11079635
-0.18732299 0.108454496 0.01580536 0.120942265 -0.018989077 -0.037917968 0.018332947 -0.10488141
-0.005354218 -0.065281354 -0.10052832 -0.19169113 -0.01599367 -0.025871737 -0.08132165 0.16240822
-0.058760058 -0.040771604 -0.051830016 0.0681834 0.010184309 -0.107656404 0.19146155 0.08647522
-0.024467234 0.048163626 -0.09183549 0.15755549 -0.05713284 0.10149172 -0.074613996 0.05804633
0.010654773 0.155654 -0.050350983 -0.0611291 -0.005522694 0.07394826 0.11960649 -0.076594636
0.19130187 -0.11783707 0.11366032 -0.018832197 0.11465627 -0.005402743 0.04580716 -0.08918923
0.09810006 0.14208813 0.09772087 0.062435172 0.015164548 -0.04273998 -0.04469454 -0.040599313
-0.0465448 0.012166972 0.18542 0.07045827 0.070342526 -0.11595619 -0.10827595 0.18295941
0.022556707 0.08496575 0.08352388 0.015704451 0.07459567 -0.04064053 0.07208109 -0.1101407
0.07538339 -0.008259185 0.13401142 0.03448127 0.07115883 -0.057084583 0.03073764 -0.013950421
0.28511405 -0.12973851 0.024466695 0.1478265 -0.0029122478 0.10933254 -0.07476464 0.16123949
0.06125286 0.05504522 0.022115503 -0.08273942 0.053439487 0.064399146 -0.05830926 -0.09265054
0.04951074 0.12331022 0.09911849 0.1639157 0.118756585 0.0012934308 -0.07943388 -0.062247
0.08852064 0.12083152 0.078225754 -0.08552124 -0.031824432 0.04361013 -0.12486883 -0.078355715
-0.06842935 -0.043357387 -0.10800439 -0.06975935 -0.024584845 0.0075938054 0.071645215 -0.021965582
-0.1211648 -0.09393194 -0.09259286 0.07293859 -0.0852831 0.05875846 -0.050508726 -0.009657736
0.051732738 0.15904377 -0.1266425 0.08506019 -0.0028395513 -0.018008579 0.22287264 -0.01022155
-0.021485427 -0.07150666 -0.10727817 -0.101350516 -0.106281556 -0.051681127 -0.08465289 0.0054972647
00000000: 4f65 94bd 7d67 5b3c d4ae 39bd fa61 29be
00000010: 71cb 66bd 4f8c 18bd 302a e43c aac8 c0bd
00000020: f1dc 463d fd5f ebbd 3e09 a1bc 4e5d 14be
00000030: 88c6 98bc 759e f9bd 48f3 1dbd e83f 9cbd
00000040: ae3c f6bc 8dc9 a4bc 722f 523a 8752 92bd
00000050: aff2 983d d4ff 4bbd d21f f6bd 7c61 3e3d
00000060: a1fa 01be 1887 10bd a2e8 273d 7125 53bd
00000070: 3310 1c3c 1d69 06be 7eac ca3b b6a7 903c
00000080: ebf7 003c 6de7 c7bd 80c1 fdbd f735 163c
00000090: 9f5f fabd dfcf 08bd 5382 bf3d b65f c43c
000000a0: c197 91bd c960 e73c 3721 94bc 3c79 45be
000000b0: bceb 583d eb17 1abd 62ca 943c 23e2 ffbd
000000c0: 442a b3bc 1ec6 733d 13b9 0b3e 51fb 333c
000000d0: 2d91 b13d 322c bb3c 45fa 0ebe c74c edbd
000000e0: b2f2 92bd 06ec 0ebe 74cf b5bd 4ab8 be3a
000000f0: efd1 663c 77ec 323e 8ae2 9ebd 65ca f23c
00000100: 16b4 7abe 3b3c dbbd 6bf5 65bd 9ed9 3cbe
00000110: ff62 8cbd 64c2 9b3d f3b6 983c a3a9 d7bd
00000120: 16f1 a8bd 08dd 36bc 42f1 823b 0cbd 79bd
00000130: ae0e 8dbd b2f3 4ebc 2ca3 1b3d d0c7 b0bd
00000140: d501 debd be38 a9bd 023f 1abd ede4 b33d
00000150: 62f6 f2bd 1c25 56bd 7257 37bd 173a dfbb
00000160: 3016 51bd e359 b3bd e545 e93b eb72 ddbd
00000170: d3ef babd e506 943b 22ce 713d e79b d4bc
00000180: 7031 edbd b6a0 04bd 656f 78bd 9b7f ea3c
00000190: 9aa0 d43b 4397 263d b7ec 2bbe 3d38 353d
000001a0: b003 d0bc d31b 833d fbd1 2a3d 5fe4 75bc
000001b0: af21 92bd c8dd 703d 46a3 c1bd 32e9 e23d
000001c0: 99d1 3fbe 641d de3d 3e7a 813c 94b0 f73d
000001d0: fb8e 9bbc df4f 1bbd fa2e 963c 11cc d6bd
000001e0: 7072 afbb 3bb2 85bd cbe1 cdbd ae4a 44be
000001f0: 2805 83bc f7f0 d3bc f78b a6bd 574e 263e
00000200: 63ae 70bd 2000 27bd b64b 54bd bda3 8b3d
00000210: 17dc 263c f67a dcbd 7f0e 443e ec19 b13d
00000220: 826f c8bc 3947 453d 3f14 bcbd 3a56 213e
00000230: 2004 6abd e4da cf3d 39cf 98bd fdc1 6d3d
00000240: 5b91 2e3c c363 1f3e d53c 4ebd 8262 7abd
00000250: b7f7 b4bb 2f72 973d 3ff4 f43d a6dd 9cbd
00000260: a3e4 433e 9054 f1bd bec6 e83d fb45 9abc
00000270: e8d0 ea3d 7e09 b1bb 4aa0 3b3d d8a8 b6bd
00000280: afe8 c83d 8d7f 113e e121 c83d 06bc 7f3d
00000290: b974 783c 1e10 2fbd 9f11 37bd 774b 26bd
000002a0: c3a5 3ebd fb57 473c bede 3d3e 6d4c 903d
000002b0: be0f 903d 707a edbd c8bf ddbd b659 3b3e
000002c0: d8c8 b83c 8602 ae3d 910e ab3d 9fa6 803c
000002d0: 9dc5 983d af76 26bd 409f 933d 7391 e1bd
000002e0: 9b62 9a3d 8851 07bc 4a3a 093e 3b3c 0d3d
000002f0: b8bb 913d 86d1 69bd 81cd fb3c 4e90 64bc
00000300: 78fa 913e 2cda 04be 616e c83c d45f 173e
00000310: 69db 3ebb bde9 df3d 341e 99bd f71b 253e
00000320: 47e4 7a3d 1977 613d 922b b53c 4973 a9bd
00000330: 5de3 5a3d b3e3 833d b1d5 6ebd 91bf bdbd
00000340: c6cb 4a3d 128a fc3d a3fe ca3d 84d9 273e
00000350: a736 f33d 5688 a93a 3bae a2bd b6f6 7ebd
00000360: 4f4a b53d 8476 f73d d334 a03d c325 afbd
00000370: 565a 02bd 89a0 323d 3bbb ffbd f678 a0bd
00000380: b024 8cbd 8497 31bd 6831 ddbd fddd 8ebd
00000390: 2866 c9bc 75d5 f83b baba 923d 2af1 b3bc
000003a0: 4025 f8bd 645f c0bd 53a1 bdbd d460 953d
000003b0: e8a8 aebd b6ac 703d 3de2 4ebd 7b3b 1ebc
000003c0: b5e5 533d 5fdc 223e 92ae 01be 0934 ae3d
000003d0: c417 3abb ba86 93bc ba38 643e 4a78 27bc
000003e0: 3502 b0bc 1572 92bd a8b4 dbbd dc90 cfbd
000003f0: 25aa d9bd 97af 53bd 7f5e adbd 6622 b43b

weight f4 [4, 128]
-0.005742271 0.012572907 -0.16159044 0.15782094 0.2220708 0.10720669 -0.1297767 -0.11875271
0.25209734 -0.05283633 0.038106795 -0.3405703 -0.301006 -0.20196848 0.093997665 0.19322878
0.15677491 -0.0456537 0.15512681 -0.032355074 -0.007585553 -0.07786563 0.30445024 0.08361407
-0.25946653 0.060091518 -0.20421645 -0.1088047 -0.020523077 -0.0023467005 0.18326528 -0.011457395
-0.10991383 0.19095849 -0.16874835 -0.033849187 0.0031907936 0.01486459 0.31708968 -0.18767075
-0.15649475 -0.14731014 -0.08232131 -0.26300782 -0.18904226 0.06060384 0.14623109 -0.5021789
0.07757676 -0.039055735 0.884592 0.35370705 -0.6857102 -0.028125325 -0.4310133 0.17103913
0.0594844 -0.21972492 -0.094434634 0.31325525 0.24319881 0.010849497 0.10251155 -0.21882176
-0.4921381 0.0030068785 -0.3210728 -0.100633025 0.10717029 0.1778567 0.12189641 0.52837914
-0.03033461 0.09129086 0.08944773 0.09799165 -0.013153699 -0.035399012 -0.119287245 0.19443299
-0.25606936 -0.37990737 0.091350645 -0.34641406 -0.0055461144 -0.5365148 -0.05225176 0.017660435
-0.15107858 -0.15949284 -0.29395702 -0.022480933 -0.043662753 0.3531236 -0.06262221 -0.26735425
-0.10552213 -0.13832024 0.04213497 -0.038453285 0.06556968 -0.09714831 0.040391378 -0.007637756
-0.09382647 -0.047564212 -0.08587801 -0.5260841 -0.028879186 -0.11345601 -0.05303738 -0.10576458
-0.12051224 -0.36539733 -0.041238528 0.06377657 -0.21780601 -0.05248012 -0.24470124 0.09767464
0.26952443 0.32258424 -1.8934903e-05 -0.18001868 -0.07883009 0.049273044 0.24334921 -0.6107892
-0.14452377 0.16857356 0.270315 0.11429761 0.014108633 -0.1203369 -0.14733726 -0.01143711
0.035263013 0.057306446 0.17346124 -0.08177207 0.07110196 0.35569575 -0.05742834 0.35514614
-0.28976542 0.037962187 -0.19264896 0.043915693 0.6626862 -0.15967853 -0.18792245 0.04127471
-0.4259104 -0.109488204 0.8489094 -0.12989092 0.42174485 0.14924508 0.14647461 0.100619406
0.7150531 -0.03204188 -0.12615028 -0.14885631 0.059807304 -0.12248001 -0.54540557 -0.23224136
-0.074762575 -0.23217644 0.06316143 0.39878824 -0.0135034695 -0.123842865 -0.19337355 0.20798887
0.063699655 -0.064100176 0.67403793 -0.33255383 0.81945395 -0.113570265 0.24245638 0.029574482
0.0075973105 0.40501666 0.11109804 0.44359368 0.39344674 0.40409327 0.31424627 0.29448983
-0.2588404 0.073240526 0.38338467 0.28888592 0.20796402 -0.20732458 0.058423735 0.010805006
-0.021345515 -0.15561831 -0.23508915 -0.08919364 0.032362945 0.09058317 -0.23950157 -0.04950952
0.1357513 0.26635933 -0.014930351 0.44777706 -0.030904625 -0.49138746 -0.395269 0.31787947
-0.055437487 -0.067827955 -0.28639352 -0.0065978775 0.019452529 -0.37224898 0.15102635 0.06708519
0.09246928 -0.20615542 0.13498251 0.070535295 -0.058756445 -0.03374059 -0.11359926 0.08565162
-0.06808762 -0.16391098 -0.121315226 0.25373316 0.071433015 0.25370687 0.08435939 -0.07138935
0.35482335 0.1384257 -0.15589711 -0.004861859 -0.22646268 0.16918877 -0.09539178 0.12163904
-0.05284513 -0.3383155 0.08869698 0.06588536 -0.02528462 0.07945485 -0.1500079 0.45154393
00000000: a929 bcbb 98fe 4d3c f777 25be d09b 213e
00000010: 8766 633e 2e8f db3d 2fe4 04be 9f34 f3bd
00000020: e712 813e e86a 58bd df15 1c3d 3b5f aebe
00000030: 751d 9abe d3d0 4ebe d981 c03d c4dd 453e
00000040: 9a89 203e 60ff 3abd 90d9 1e3e c186 04bd
00000050: 3b90 f8bb 0478 9fbd e7e0 9b3e db3d ab3d
00000060: ccd8 84be 8622 763d 1e1e 51be 00d5 debd
00000070: 0320 a8bc 1acb 19bb e5a9 3b3e ccb7 3bbc
00000080: 811a e1bd 9f8a 433e 5ecc 2cbe 72a5 0abd
00000090: a21c 513b 9c8a 733c 9459 a23e c32c 40be
000000a0: 2940 20be 78d8 16be 1398 a8bd f6a8 86be
000000b0: 4b94 41be bb3b 783d 9abd 153e cc8e 00bf
000000c0: 90e0 9e3d e8f8 1fbd 9f74 623f 1719 b53e
000000d0: b48a 2fbf 1567 e6bc c6ad dcbe e224 2f3e
000000e0: eaa5 733d 92ff 60be f266 c1bd fe62 a03e
000000f0: 1c09 793e 17c2 313c 93f1 d13d d012 60be
00000100: 86f9 fbbe 0d0f 453b a763 a4be b018 cebd
00000110: 197c db3d 1120 363e d3a4 f93d db43 073f
00000120: 4a80 f8bc b4f6 ba3d 5f30 b73d d9af c83d
00000130: 9d82 57bc 8efe 10bd df4c f4bd 7119 473e
00000140: 861b 83be 3883 c2be 0c16 bb3d 2f5d b1be
00000150: 2ebc b5bb 0959 09bf f105 56bd 9eac 903c
00000160: 58b4 1abe 1752 23be 8981 96be ef29 b8bc
00000170: b7d7 32bd 9ecc b43e 1340 80bd a8e2 88be
00000180: fd1b d8bd d2a3 0dbe b895 2c3d 3181 1dbd
00000190: 6549 863d b1f5 c6bd 6e71 253d 2446 fabb
000001a0: 1828 c0bd b1d2 42bd cfe0 afbd 73ad 06bf
000001b0: 0b94 ecbc a05b e8bd b93d 59bd 1a9b d8bd
000001c0: 1fcf f6bd 5c15 bbbe bbe9 28bd 4a9d 823d
000001d0: 8a08 5fbe 65f5 56bd f692 7abe a409 c83d
000001e0: 1bff 893e c329 a53e 65d6 9eb7 d156 38be
000001f0: ac71 a1bd 88d2 493d 8930 793e ae5c 1cbf
00000200: 0afe 13be 8c9e 2c3e ba66 8a3e de14 ea3d
00000210: e527 673c 3173 f6bd 94df 16be b762 3bbc
00000220: f36f 103d 2aba 6a3d d39f 313e 1d78 a7bd
00000230: e89d 913d c11d b63e fb39 6bbd b7d5 b53e
00000240: 225c 94be 3d7e 1b3d c545 45be f1e0 333d
00000250: cea5 293f c582 23be be6e 40be ac0f 293d
00000260: ee10 dabe 5a3b e0bd 2052 593f 2002 05be
00000270: f1ee d73e b4d3 183e 71fd 153e 8c11 ce3d
00000280: b80d 373f 593e 03bd 8a2d 01be ca6d 18be
00000290: 81f8 743d cdd6 fabd b39f 0bbf aed0 6dbe
000002a0: 1f1d 99bd a9bf 6dbe c85a 813d f92d cc3e
000002b0: a83d 5dbc 54a1 fdbd b703 46be 09fb 543e
000002c0: f774 823d f446 83bd c08d 2c3f 7f44 aabe
000002d0: bcc7 513f 8797 e8bd 7c46 783e 2f46 f23c
000002e0: dcf2 f83b 585e cf3e 5f87 e33d b61e e33e
000002f0: da71 c93e 50e5 ce3e e3e4 a03e 5fc7 963e
00000300: bb86 84be 21ff 953d ff4a c43e dbe8 933e
00000310: 85f4 543e e54c 54be ba4d 6f3d 7b07 313c
00000320: cadc aebc 685a 1fbe 36bb 70be 28ab b6bd
00000330: 028f 043d ab83 b93d e63f 75be 7fca 4abd
00000340: 6402 0b3e 4060 883e 6e9e 74bc 0943 e53e
00000350: b22b fdbc 2397 fbbe b360 cabe 19c1 a23e
00000360: 6b12 63bd 62e9 8abd 2ca2 92be 0233 d8bb
00000370: e95a 9f3c 6b97 bebe a7a6 1a3e f663 893d
00000380: 8960 bd3d 681a 53be db38 0a3e cf74 903d
00000390: 99aa 70bd 9333 0abd bba6 e8bd 1e6a af3d
000003a0: 8671 8bbd 48d8 27be 1e74 f8bd 50e9 813e
000003b0: 794b 923d dee5 813e 9ec4 ac3d 9434 92bd
000003c0: 68ab b53e 77bf 0d3e 7ea3 1fbe 3b50 9fbb
000003d0: d5e5 67be d23f 2d3e c45c c3bd e41d f93d
000003e0: 2374 58bd b037 adbe c3a6 b53d e7ee 863d
000003f0: b121 cfbc 39b9 a23d ac9b 19be c430 e73e

bias f4 [4]
-0.010372931 -0.05523583 -0.009576557 0.018126732
00000000: 3af3 29bc f73e 62bd fee6 1cbc 837e 943c
