svd-classification-model.pt (torch, 886283 bytes, 6 tensors)

weight_ih_l0 f4 [512, 300]
0.112809636 0.15808134 -0.38939953 -0.26816696 0.45673597 0.18905291 -0.041297704 -0.057047836
-0.26130491 -0.5193931 -0.092221774 -0.23671176 -0.16868071 -0.275552 -0.10328293 -0.29246992
-0.45455238 -0.29943344 0.4430433 -0.054016773 -0.25232437 -0.5666905 -0.011778978 0.37051323
-0.2231161 -0.34866348 0.25394657 0.51108867 -0.06478843 0.015002443 0.1129724 0.6182689
-0.072627395 -0.2578097 -0.04581629 -0.32902426 -0.2097597 0.32757407 0.10107355 -0.2086199
0.11760093 0.024464952 0.65193427 -0.04402969 -0.20947495 0.25240803 0.43306708 -0.04153214
-0.35072833 0.048967674 0.013179137 0.1635189 -0.11251388 -0.27259436 -0.21949838 0.72043306
0.4165268 0.28843585 -0.18233214 0.055798497 0.79435927 -0.10791487 0.26848367 -0.4061952
0.22501129 -0.523196 -0.53664017 -0.20360817 -0.34082606 -0.2303537 0.37263978 -0.3138353
-0.25876838 -0.23056847 0.08799185 -0.32673886 0.5346645 0.07600294 -0.47041932 -0.03403612
0.6746429 0.11128379 -0.27370661 0.21335731 0.1342798 0.09895758 -0.039467324 0.059814125
0.04855452 0.13590659 -0.26635137 0.09131989 -0.099856526 0.5752885 0.39988315 0.37769175
0.31554553 0.21082403 -0.16548665 -0.09926643 0.5458144 0.103082135 0.11664945 0.62989277
-0.13791266 0.13425641 0.46204278 0.30790454 0.11840226 -0.1469291 0.20785865 0.24421284
-0.084850624 -0.56110334 -0.1995976 0.1135589 -0.16252372 -0.1693595 0.10576096 -0.079181254
0.16400924 0.30035177 -0.26633337 -0.13272224 0.012497786 -0.595767 -0.54516304 0.36393642
-0.3685696 -0.25736168 -0.23759153 0.03288052 0.52097 0.16916905 0.25549716 0.31370068
0.61441755 -0.10736248 -0.43214834 0.004940039 0.053271476 0.14405155 -0.026765045 0.18294372
0.21715643 -0.3841767 -0.11571213 -0.38350606 -0.050493818 0.18303898 0.28682598 -0.070412755
0.2629207 0.16058956 -0.091437586 0.6091397 0.10750891 0.015376162 -0.3070132 0.36559117
0.114192516 -0.16569483 -0.030114057 0.1289022 -0.006147389 0.014353451 0.19311234 -0.27640027
-0.055623043 -0.14684382 0.099380575 -0.2312568 -0.2663412 0.024315353 -0.29914796 0.17433618
-0.31645596 -0.2567457 -0.13881482 0.20922425 -0.2544465 -0.08675798 0.60775584 -0.12527934
0.1346225 -0.04620644 0.30757853 -0.33143583 -0.11289746 -0.38995668 -0.26416552 0.24335942
0.043114334 0.115251034 -0.19239345 -0.3429263 0.19753447 0.16322152 0.11091214 -0.107272394
-0.086754955 0.20854618 -0.14117083 0.008926673 0.18669358 0.41123185 0.36616513 0.32752642
-0.08085505 -0.08882982 0.10289549 -0.3067149 0.22542332 0.059020914 0.028924797 -0.24413387
0.06614472 -0.30115342 0.16340904 -0.22815865 0.29482073 0.35667768 0.11092174 -0.3767697
-0.14180265 0.15829518 -0.13265753 -0.14328794 0.1808153 -0.1533038 -0.2611335 -0.17554124
-0.10581713 -0.05955198 -0.44243583 -0.2202096 -0.0022399735 0.19335864 -0.13334335 0.2110312
-0.07947955 0.13675058 -0.24321553 -0.2002308 0.55590975 -0.4643784 0.036653776 -0.17182934
-0.0147328945 0.18711138 -0.34138718 -0.16602522 -0.04448754 0.080527425 0.448653 -0.24707896
00000000: bd08 e73d 13e0 213e 605f c7be 2e4d 89be
00000010: 4cd9 e93e 1697 413e c827 29bd feaa 69bd
00000020: c2c9 85be f2f6 04bf c5de bcbd 9164 72be
00000030: a3ba 2cbe 2715 8dbe 0086 d3bd 9ebe 95be
00000040: 17bb e8be 574f 99be 92d6 e23e b140 5dbd
00000050: a930 81be a112 11bf 9dfc 40bc e9b3 bd3e
00000060: 8c78 64be 0584 b2be 4905 823e b5d6 023f
00000070: ccaf 84bd cfcc 753c 135e e73d df46 1e3f
00000080: acbd 94bd a2ff 83be dda9 3bbd de75 a8be
00000090: 3fcb 56be cab7 a73e a6ff ce3d 74a0 55be
000000a0: c2d8 f03d b96a c83c 2ae5 263f 7a58 34bd
000000b0: 9a80 56be a03b 813e f8ba dd3e 9b1d 2abd
000000c0: aa92 b3be 5492 483d 4fed 573c 8071 273e
000000d0: ad6d e6bd 7d91 8bbe 2fc4 60be 4d6e 383f
000000e0: 0043 d53e ddad 933e 47b5 3abe f78c 643d
000000f0: 215b 4b3f 7902 ddbd b176 893e d1f8 cfbe
00000100: 5c69 663e 2cf0 05bf 4061 09bf a97e 50be
00000110: c180 aebe d7e1 6bbe a4ca be3e 05af a0be
00000120: 4a7d 84be 241a 6cbe 1235 b43d 514a a7be
00000130: c6df 083f 6ea7 9b3d cdda f0be 7569 0bbd
00000140: 66b5 2c3f c1e8 e33d 4623 8cbe 577a 5a3e
00000150: a580 093e 46aa ca3d 7da8 21bd a8ff 743d
00000160: 1be1 463d 192b 0b3e 355f 88be ec05 bb3d
00000170: 9481 ccbd 1b46 133f 7cbd cc3e d060 c13e
00000180: 2f8f a13e 41e2 573e 5575 29be 334c cbbd
00000190: 7eba 0b3f ba1c d33d e8e5 ee3d a740 213f
000001a0: fa38 0dbe 837a 093e df90 ec3e aaa5 9d3e
000001b0: e27c f23d 9574 16be e6d8 543e ee12 7a3e
000001c0: 2ac6 adbd 78a4 0fbf 5063 4cbe 9291 e83d
000001d0: 9e6c 26be 946c 2dbe 3499 d83d c829 a2bd
000001e0: 0af2 273e b5c7 993e d95c 88be 57e8 07be
000001f0: 84c3 4c3c 3084 18bf ce8f 0bbf e055 ba3e
00000200: 28b5 bcbe e9c4 83be 324b 73be b9ad 063d
00000210: 4a5e 053f a73a 2d3e 86d0 823e 609d a03e
00000220: 784a 1d3f dce0 dbbd 8c42 ddbe 0de0 a13b
00000230: 3133 5a3d 4082 133e 5e42 dbbc 9955 3b3e
00000240: 415e 5e3e cfb2 c4be 7bfa ecbd e85a c4be
00000250: 9bd2 4ebd 926e 3b3e dbda 923e 9034 90bd
00000260: 8b9d 863e 9771 243e a143 bbbd 94f0 1b3f
00000270: a22d dc3d 4cec 7b3c d630 9dbe c42e bb3e
00000280: c4dd e93d e8ab 29be c1b1 f6bc f0fe 033e
00000290: 0970 c9bb bd2a 6b3c 3ebf 453e 5684 8dbe
000002a0: fdd4 63bd 3a5e 16be 0b88 cb3d 95ce 6cbe
000002b0: e05d 88be fe30 c73c ec29 99be 2f85 323e
000002c0: 8406 a2be 2c74 83be 7925 0ebe e23e 563e
000002d0: d046 82be 2bae b1bd e395 1b3f 3a49 00be
000002e0: 7bda 093e f742 3dbd ef7a 9d3e f5b1 a9be
000002f0: c936 e7bd 67a8 c7be b440 87be 3633 793e
00000300: a898 303d bc08 ec3d ca02 45be 0994 afbe
00000310: 7a46 4a3e 8b23 273e e725 e33d a1b1 dbbd
00000320: 95ac b1bd 218d 553e 168f 10be 2e41 123c
00000330: 9a2c 3f3e fb8c d23e ff79 bb3e 8bb1 a73e
00000340: 5597 a5bd 69ec b5bd dfba d23d bc09 9dbe
00000350: 5fd5 663e eabf 713d b2f3 ec3c 3bfe 79be
00000360: e276 873d c830 9abe b354 273e 6ca2 69be
00000370: bef2 963e 759e b63e f02a e33d f5e7 c0be
00000380: b734 11be 2218 223e 60d7 07be 13ba 12be
00000390: a527 393e acfb 1cbe 4ab3 85be 15c1 33be
000003a0: a7b6 d8bd c7ec 73bd f386 e2be a07e 61be
000003b0: 85cc 12bb cfff 453e 298b 08be 9018 583e
000003c0: 2dc6 a2bd 5808 0c3e 7e0d 79be 4e09 4dbe
000003d0: 1a50 0e3f 01c3 edbe 4522 163d 08f4 2fbe
000003e0: 3d62 71bc 209a 3f3e 4dca aebe 8402 2abe
000003f0: 9138 36bd 90eb a43d d9b5 e53e 4402 7dbe

weight_hh_l0 f4 [512, 128]
-0.15340282 0.10655337 0.06691996 0.6741886 -0.07843658 -0.40466118 0.24782622 -0.2939412
0.33373395 -0.28153247 0.22691724 0.5503305 -0.69157904 -0.043932334 -0.20589465 -0.7799258
0.45223892 -0.043513034 -0.13832176 -0.21252736 -0.19102846 -0.029202681 -0.08590402 -0.09131006
-0.015392531 0.62542516 0.3856542 -0.21496412 -0.025811164 -0.29603845 -0.23016746 0.05864924
-0.05460568 0.30816787 0.38479358 -0.25180915 0.12013383 0.0061524324 0.121437006 0.20862103
-0.21105182 0.13148566 0.5921889 -0.15327361 -0.013190911 0.026131263 0.45833957 -0.90607274
0.032677222 -0.30338663 -0.070104875 0.006540738 -0.3036128 -0.1096765 0.28558588 -0.28087157
-0.26508945 -0.3605891 0.020237288 -0.00047926803 -0.049060713 -0.28740188 -0.2121991 0.09961729
-0.15564032 -0.14976856 0.42774314 0.06288401 -0.114411004 -0.32015935 0.009372868 0.34265178
0.10557926 0.069878206 0.3022542 -0.391312 -0.16536361 0.4014807 -0.0057405634 0.109246865
0.4668603 -0.22430736 -0.13550791 0.32789686 -0.011228188 -0.54746324 -0.2169158 0.061426383
-0.31143484 0.37569255 -0.34121186 -0.09111691 0.12374475 -0.35866344 -0.04269661 0.30687723
0.16180383 -0.14449011 0.26181346 -0.5613136 -0.11411955 0.011723611 -0.502368 0.21664815
-0.093107946 0.021526333 -0.59784275 -0.36768705 0.05627828 0.2382544 0.28023016 0.08378059
0.2785979 0.013604552 -0.099092916 -0.20692514 -0.04895587 0.24494554 -0.25883263 0.35885215
0.3565858 -0.45423803 0.47485527 -0.06736673 0.65753585 -0.24092504 0.101981945 -0.09119549
-0.21583329 0.13731144 0.14133148 0.036607914 -0.051749207 0.063114785 -0.100171484 -0.22236802
0.21902871 -0.3196816 -0.062674865 0.44542307 -0.069783345 0.12481414 0.15122448 -0.15368156
0.49437207 0.19462512 0.12090986 -0.3136615 0.13209288 0.07692209 0.060462035 0.10287746
-0.29755923 0.16657528 -0.2768547 -0.23366708 0.25480255 0.14827973 -0.12777498 -0.08596094
-0.22450054 -0.029347798 0.2619023 -0.13421987 0.27600685 -0.099210754 -0.050523456 0.19122317
0.03548941 0.10261388 -0.14900427 0.32572627 -0.16913232 0.087890424 -0.087867305 -0.10137803
0.05645538 -0.11752959 -0.2251055 -0.053469136 0.08751846 -0.059080746 -0.2898556 -0.25737035
-0.10772041 0.08158422 -0.086794674 0.35553804 -0.18644708 -0.20919879 -0.17439178 -0.04892605
-0.087762214 0.17730047 0.12606844 0.024115004 0.16794266 -0.047990605 -0.037512787 -0.17173088
-0.010613 0.15517949 0.33965677 0.16208217 0.08823979 0.021119516 -0.18293919 0.33359835
-0.058216486 0.15090391 -0.006337561 0.11602185 -0.2743493 -0.20024224 -0.15948209 -0.2246701
-0.11290457 0.10111012 -0.4376492 -0.054188285 0.07670991 0.077562824 -0.24480037 -0.13593349
0.3610197 -0.4668151 -0.03790327 -0.06345376 -0.189379 0.012535262 -0.30053824 0.092560045
-0.2985152 0.017436331 -0.3204298 -0.23987995 0.35856095 -0.16837516 0.033402212 -0.18824424
-0.13984877 -0.111807846 0.21871206 -0.16780414 0.012118269 0.025500817 -0.24187593 0.13008039
0.08945359 0.06293858 0.4377628 0.04458595 0.14180787 -0.40733013 0.16286665 -0.010070996
00000000: a115 1dbe a738 da3d 550d 893d a097 2c3f
00000010: 5ca3 a0bd c02f cfbe 28c6 7d3e 767f 96be
00000020: 2ddf aa3e 0625 90be fe5c 683e 76e2 0c3f
00000030: 530b 31bf 64f2 33bd 0cd6 52be 38a9 47bf
00000040: dc8b e73e b93a 32bd 38a4 0dbe c6a0 59be
00000050: f79c 43be 763a efbc 72ee afbd c500 bbbd
00000060: f430 7cbc dd1b 203f 7874 c53e 8e1f 5cbe
00000070: ef71 d3bc 5a92 97be 05b1 6bbe 2f3a 703d
00000080: 35aa 5fbd 2ec8 9d3e aa03 c53e 21ed 80be
00000090: ba08 f63d 589a c93b f7b3 f83d c0a0 553e
000000a0: f81d 58be 2da4 063e b199 173f c2f3 1cbe
000000b0: b11e 58bc 3b11 d63c 7cab ea3e 62f4 67bf
000000c0: 8dd8 053d 7e55 9bbe 2593 8fbd b053 d63b
000000d0: 2373 9bbe 139e e0bd 5038 923e 66ce 8fbe
000000e0: ceb9 87be 229f b8be abc8 a53c 4446 fbb9
000000f0: e3f3 48bd 5726 93be b94a 59be 2604 cc3d
00000100: 2d60 1fbe ee5c 19be 2601 db3e 55c9 803d
00000110: 5150 eabd edeb a3be a890 193c 0e70 af3e
00000120: f039 d83d 4e1c 8f3d 10c1 9a3e 0c5a c8be
00000130: 1455 29be e18e cd3e 561b bcbb d2bc df3d
00000140: 5008 ef3e d4b0 65be 96c2 0abe 19e2 a73e
00000150: 6ff6 37bc 8d26 0cbf 2d1f 5ebe 3b9a 7b3d
00000160: 6374 9fbe c65a c03e 52b3 aebe 819b babd
00000170: e36d fd3d bca2 b7be a4e2 2ebd 031f 9d3e
00000180: e7af 253e 37f5 13be 6a0c 863e 40b2 0fbf
00000190: 83b7 e9bd 6314 403c 309b 00bf 03d9 5d3e
000001a0: 61af bebd fe57 b03c 390c 19bf 7a41 bcbe
000001b0: 0e84 663d f6f8 733e 547a 8f3e 2895 ab3d
000001c0: 62a4 8e3e a0e5 5e3c 3af1 cabd 2fe4 53be
000001d0: f385 48bd 01d3 7a3e b685 84be 78bb b73e
000001e0: 6a92 b63e e391 e8be 3b20 f33e 91f7 89bd
000001f0: 4554 283f 0eb5 76be e9db d03d b3c4 babd
00000200: 6703 5dbe 5f9b 0c3e 33b9 103e 2ef2 153d
00000210: faf6 53bd 5342 813d b526 cdbd 71b4 63be
00000220: 1049 603e 4fad a3be ae5b 80bd 7e0e e43e
00000230: 92ea 8ebd 8e9e ff3d 97da 1a3e b35e 1dbe
00000240: 561e fd3e cf4b 473e 979f f73d 3d98 a0be
00000250: 5b43 073e 5489 9d3d 0aa7 773d 6bb1 d23d
00000260: af59 98be b692 2a3e e6bf 8dbe 6c46 6fbe
00000270: 7b75 823e a4d6 173e 72d7 02be 4a0c b0bd
00000280: 78e3 65be cb6a f0bc 0f18 863e ef70 09be
00000290: c550 8d3e 022f cbbd aff1 4ebd 02d0 433e
000002a0: 585d 113d 3a27 d23d 9394 18be 98c5 a63e
000002b0: 0631 2dbe e5ff b33d c6f3 b3bd 499f cfbd
000002c0: c23d 673d 5bb3 f0bd 0e82 66be 7402 5bbd
000002d0: e13c b33d a7fe 71bd f467 94be 0cc6 83be
000002e0: 859c dcbd a115 a73d 68c1 b1bd 1509 b63e
000002f0: fceb 3ebe 3538 56be c293 32be af66 48bd
00000300: adbc b3bd 418e 353e 1618 013e d48c c53c
00000310: 29f9 2b3e cc91 44bd 02a7 19bd 38da 2fbe
00000320: 26e2 2dbc 5fe7 1e3e 7ee7 ad3e def8 253e
00000330: 10b7 b43d d602 ad3c 6954 3bbe 67cd aa3e
00000340: 6974 6ebd 8e86 1a3e 51ab cfbb dd9c ed3d
00000350: 8377 8cbe 4d0c 4dbe 464f 23be eb0f 66be
00000360: 833a e7bd d312 cf3d 8e13 e0be 89f4 5dbd
00000370: 161a 9d3d 42d9 9e3d f3ac 7abe 2632 0bbe
00000380: 93d7 b83e 6402 efbe 7640 1bbd 0cf4 81bd
00000390: 92ec 41be b360 4d3c 26e0 99be 1f90 bd3d
000003a0: fcd6 98be a3d6 8e3c 600f a4be 17a3 75be
000003b0: 4d95 b73e 8a6a 2cbe c2d0 083d 19c3 40be
000003c0: 8434 0fbe 83fb e4bd 0ef6 5f3e d9d4 2bbe
000003d0: b48b 463c 17e7 d03c 53ae 77be cb33 053e
000003e0: 7233 b73d f1e5 803d 7222 e03e c29f 363d
000003f0: 1536 113e 938d d0be 84c6 263e d200 25bc

bias_ih_l0 f4 [512]
-0.44874296 -0.3396177 0.0555818 -0.121172845 0.10604564 -0.3673276 -0.49713075 0.14393352
-0.6527085 -0.319241 -0.33627117 -0.33989292 -0.3081027 -0.3272726 -0.0504016 -0.34590963
-0.21383363 -0.531041 -0.63852465 -0.22200961 0.2247326 -0.20373121 -0.2739932 -0.38951376
-0.4033234 -0.14846611 -0.6770159 -0.15473579 -0.3189946 -0.63025635 0.10772742 -0.36443317
0.15988515 -0.6431517 -0.44469014 -0.31898573 -0.28661665 -0.40162364 -0.39522934 -0.3362163
-0.15271862 -0.60509795 -0.24995178 -0.2674714 0.018666152 -0.03077591 -0.39553174 -0.07610093
-0.43626416 -0.4042632 -0.22474569 -0.31395596 -0.44174376 -0.5185165 -0.48149467 -0.6666263
-0.4909204 -0.22982423 -0.2669498 -0.20699298 0.3350338 -0.21992598 -0.3672024 -0.50196075
-0.100461066 -0.5840443 -0.26628128 -0.47077528 -0.32224113 -0.2177544 -0.2132369 -0.38620415
-0.3864603 -0.5552237 -0.42208815 -0.61176294 -0.3230387 -0.50927407 -0.6268953 -0.2932758
0.05290192 -0.36066487 -0.29671326 -0.33868304 -0.49038056 -0.28187025 -0.3843114 -0.5937106
-0.4283671 -0.3849241 -0.17386702 0.26542684 -0.6527449 0.17008191 0.11864268 0.1544905
-0.18856844 -0.38223636 -0.26190746 -0.5733369 -0.28384385 -0.35775718 -0.29201806 -0.45935398
-0.43957722 -0.5477591 -0.22348249 -0.24774116 -0.019814372 -0.14326808 -0.22068445 -0.39967337
-0.21181157 -0.58730936 -0.29879054 -0.55507696 0.10678533 -0.7637509 -0.6639408 0.06703494
-0.48952895 -0.15893415 -0.2218598 -0.674217 -0.338452 -0.27437797 -0.4018388 -0.36763364
-0.43024737 -0.30961502 -0.416691 -0.5349979 -0.2547232 -0.103257865 -0.38046542 -0.5987754
-0.7292189 -0.2648382 -0.35479224 -0.54447263 -0.16034716 -0.16179556 -0.10610926 -0.36232883
-0.29436606 -0.5170659 -0.6307243 -0.3628185 0.56101817 -0.6121231 -0.29211724 -0.36311346
-0.80509186 -0.4584061 -0.67267495 -0.17467986 -0.09374657 -0.46908504 0.2955828 -0.45625633
0.58670413 -0.78588873 -0.47263232 -0.38182786 -0.25139996 -0.39613616 -0.4479841 -0.43534335
-0.439723 -0.5814146 -0.15613113 -0.425132 0.13966888 -0.39004058 -0.29163483 0.009464515
-0.5126923 -0.2573029 -0.360871 -0.3488257 -0.583685 -0.4495484 -0.38519886 -0.5048066
-0.2730633 -0.13076317 -0.41613224 -0.5020147 -0.5666537 -0.16365376 -0.3394321 -0.5190709
-0.14727348 -0.5670265 -0.58335334 -0.44253245 -0.31060883 -0.21065155 -0.45777887 -0.38094637
-0.19001518 -0.4756474 -0.3966803 -0.59814066 -0.48367757 -0.30352452 -0.53312206 -0.362999
-0.24480926 -0.50209945 -0.4175397 -0.4189798 -0.36773783 -0.2559529 -0.41385356 -0.5256772
-0.5720162 -0.33912864 -0.12981425 0.66450864 -0.37246868 0.5204921 0.73777664 -0.09968373
-0.19668175 -0.29865628 -0.42971814 -0.5381346 -0.49658772 -0.35790375 -0.36327702 -0.15283728
-0.47953212 -0.59528244 -0.10538552 -0.4778723 -0.21368086 0.29288378 0.048212733 0.032504227
-0.005222858 -0.4848646 -0.1586332 -0.3200092 0.8637726 -0.6182624 -0.4811821 -0.5536212
-0.5544154 -0.14943461 -0.28930846 -0.5797313 -0.36022472 -0.45798 -0.25174722 -0.3044
00000000: a3c1 e5be 5fe2 adbe bea9 633d 7829 f8bd
00000010: 752e d93d 5d12 bcbe ec87 febe 4f63 133e
00000020: e717 27bf 8e73 a3be bc2b acbe 7206 aebe
00000030: a3bf 9dbe 4690 a7be e871 4ebd 111b b1be
00000040: 34f7 5abe 4ef2 07bf 5a76 23bf 7d56 63be
00000050: 4d20 663e ea9e 50be d648 8cbe 596e c7be
00000060: 6880 cebe 8007 18be ea50 2dbf 0f73 1ebe
00000070: 4353 a3be 7b58 21bf 32a0 dc3d fc96 babe
00000080: efb8 233e 97a5 24bf 6dae e3be 1952 a3be
00000090: 6bbf 92be 9da1 cdbe 805b cabe 8b24 acbe
000000a0: 4562 1cbe b3e7 1abf 5cf3 7fbe 03f2 88be
000000b0: c2e9 983c c31d fcbc 2383 cabe ceda 9bbd
000000c0: 045e dfbe 96fb cebe bc23 66be d6be a0be
000000d0: 3d2c e2be 7fbd 04bf 7886 f6be 05a8 2abf
000000e0: eb59 fbbe 0b57 6bbe a5ad 88be f8f5 53be
000000f0: 8d89 ab3e 4734 61be f401 bcbe 8080 00bf
00000100: 88be cdbd ed83 15bf 0556 88be 7509 f1be
00000110: cafc a4be 02fb 5ebe c65a 5abe 8dbc c5be
00000120: 20de c5be 2423 0ebf f01b d8be 7f9c 1cbf
00000130: 5465 a5be c95f 02bf 367c 20bf 3f28 96be
00000140: afaf 583d 11a9 b8be cdea 97be dd67 adbe
00000150: 2913 fbbe 4c51 90be 77c4 c4be 6bfd 17bf
00000160: ef52 dbbe c614 c5be 320a 32be 07e6 873e
00000170: 4a1a 27bf f429 2e3e effa f23d c232 1e3e
00000180: 1618 41be 7cb4 c3be bc18 86be 35c6 12bf
00000190: fb53 91be f32b b7be 6483 95be 7230 ebbe
000001a0: 4410 e1be f139 0cbf 98d8 64be dcaf 7dbe
000001b0: c051 a2bc deb4 12be 1bfb 61be fda1 ccbe
000001c0: 22e5 58be e859 16bf 13fb 98be 8619 0ebf
000001d0: 44b2 da3d 2e85 43bf 06f8 29bf 9d49 893d
000001e0: 8aa3 fabe a2bf 22be 372f 63be 7c99 2cbf
000001f0: 9549 adbe 457b 8cbe d1bd cdbe 7a3a bcbe
00000200: 6249 dcbe dc85 9ebe 8658 d5be 9ff5 08bf
00000210: 146b 82be dc78 d3bd 5dcc c2be 5849 19bf
00000220: 17ae 3abf df98 87be 54a7 b5be 8f62 0bbf
00000230: 0c32 24be bcad 25be d04f d9bd 2a83 b9be
00000240: 26b7 96be 6e5e 04bf 2677 21bf 59c3 b9be
00000250: e39e 0f3f 19b4 1cbf 6490 95be 02ea b9be
00000260: 801a 4ebf 34b4 eabe 6d34 2cbf 47df 32be
00000270: 34fe bfbd ea2b f0be a156 973e 6e9a e9be
00000280: 3e32 163f 0130 49bf ddfc f1be f17e c3be
00000290: 7fb7 80be 5cd2 cabe 2c5e e5be 53e5 debe
000002a0: 6023 e1be 96d7 14bf d7e0 1fbe e7aa d9be
000002b0: 5c05 0f3e 66b3 c7be 2951 95be 0e11 1b3c
000002c0: cd3f 03bf 35bd 83be 15c4 b8be 4899 b2be
000002d0: 616c 15bf 352b e6be c938 c5be 013b 01bf
000002e0: f4ce 8bbe c8e6 05be 490f d5be 0984 00bf
000002f0: 3810 11bf da94 27be 0bca adbe d5e1 04bf
00000300: dcce 16be a628 11bf a556 15bf 9d93 e2be
00000310: 1f08 9fbe 0ab5 57be fe61 eabe 670b c3be
00000320: 5793 42be 0e88 f3be ae19 cbbe bf1f 19bf
00000330: 96a4 f7be 9167 9bbe b07a 08bf 01db b9be
00000340: 47af 7abe 9789 00bf c3c7 d5be 8584 d6be
00000350: 2248 bcbe 420c 83be 9de4 d3be c892 06bf
00000360: a76f 12bf 45a2 adbe 07ee 04be 3d1d 2a3f
00000370: 37b4 bebe f83e 053f eede 3c3f fc26 ccbd
00000380: f166 49be 7ae9 98be 0404 dcbe 30c3 09bf
00000390: bf40 febe 293f b7be 72ff b9be 6081 1cbe
000003a0: 3c85 f5be 6e64 18bf 5dd4 d7bd aeab f4be
000003b0: 28cf 5abe ddf4 953e b77a 453d 2723 053d
000003c0: 8224 abbb 2c40 f8be be70 22be 3fd8 a3be
000003d0: 3320 5d3f 7246 1ebf 805d f6be 1eba 0dbf
000003e0: 2bee 0dbf 6305 19be 3d20 94be 4569 14bf
000003f0: 606f b8be 5b7c eabe 03e5 80be 51da 9bbe

bias_hh_l0 f4 [512]
-0.5059553 -0.33704075 0.11460289 -0.18652101 0.110017136 -0.38390502 -0.4339655 0.13802798
-0.6201763 -0.39269966 -0.29581952 -0.4308004 -0.3257195 -0.22453474 -0.06393104 -0.3715465
-0.23458253 -0.44575688 -0.646661 -0.19487697 0.16198708 -0.13527237 -0.35678244 -0.3430738
-0.33330944 -0.26616544 -0.611183 -0.20031472 -0.217404 -0.48360148 -0.025848055 -0.4441507
0.18344925 -0.6381206 -0.4861508 -0.26265332 -0.35878953 -0.3720169 -0.4047106 -0.3033761
-0.08825797 -0.74012303 -0.24718407 -0.28922835 -0.01697778 -0.13238695 -0.38709238 -0.053688996
-0.42941076 -0.31121776 -0.29702646 -0.3388757 -0.46323404 -0.5376091 -0.5684622 -0.6541524
-0.4028337 -0.36668423 -0.29058412 -0.2148478 0.28582588 -0.2384297 -0.2118152 -0.42118523
-0.0950297 -0.67373556 -0.20589532 -0.44006827 -0.413637 -0.15153672 -0.3469414 -0.35867268
-0.34871995 -0.5637164 -0.4503304 -0.62769806 -0.35240975 -0.51431847 -0.60157585 -0.37226954
0.11475665 -0.30897343 -0.3670006 -0.43230763 -0.5398473 -0.23981322 -0.46054828 -0.5137769
-0.53409576 -0.39346617 -0.14305334 0.15887411 -0.7519538 0.1905009 0.21725349 0.104827985
-0.18637702 -0.33799472 -0.28741285 -0.5175026 -0.28749967 -0.50938827 -0.39645278 -0.38253543
-0.51893246 -0.40608782 -0.21523409 -0.36392692 -0.051483747 -0.1754104 -0.14497009 -0.34514463
-0.17117666 -0.6163307 -0.2648794 -0.5474203 0.10294306 -0.7642135 -0.58024645 0.027705146
-0.49514195 -0.236338 -0.18260059 -0.59700584 -0.255848 -0.21158472 -0.2689395 -0.36995658
-0.37228337 -0.39302883 -0.37822524 -0.46862966 -0.14195834 -0.23561607 -0.39052254 -0.5254101
-0.8310332 -0.35793298 -0.37526634 -0.41074282 -0.1292554 -0.13658728 0.008802836 -0.2815208
-0.37634107 -0.48691595 -0.6010512 -0.40036812 0.4571458 -0.4769858 -0.33166254 -0.24168408
-0.83349925 -0.50680083 -0.6724363 -0.19681315 -0.097643755 -0.59057087 0.31637362 -0.4289081
0.5378379 -0.64549416 -0.489882 -0.36677614 -0.3205693 -0.34259066 -0.5055871 -0.44875923
-0.33072966 -0.61698955 -0.09853615 -0.37275627 0.19470495 -0.23611562 -0.26750416 -0.08058954
-0.5548737 -0.19575442 -0.34012452 -0.42618063 -0.49267697 -0.42315534 -0.33613172 -0.46510813
-0.2937234 -0.101989806 -0.33674064 -0.39219892 -0.45036665 -0.17596836 -0.2639968 -0.5442555
-0.20828065 -0.5930789 -0.47293442 -0.28125867 -0.3759509 -0.07287608 -0.44869918 -0.3405371
-0.16909628 -0.5501026 -0.48359963 -0.47216898 -0.3578754 -0.17751168 -0.55029577 -0.34091163
-0.37518373 -0.554245 -0.4426682 -0.2942147 -0.52822256 -0.38058594 -0.41512105 -0.5184584
-0.5896567 -0.2723494 -0.16302544 0.66541916 -0.5073075 0.61049205 0.8028385 -0.16148818
-0.18852235 -0.44754937 -0.3806727 -0.64052206 -0.5473235 -0.3739681 -0.28904504 -0.18415156
-0.5003774 -0.5268769 0.019758642 -0.3737838 -0.28088093 0.28363368 0.08567347 -0.06963517
-0.034334656 -0.6098014 -0.17726609 -0.30370393 0.8445633 -0.5654237 -0.5871108 -0.49712217
-0.4944906 -0.24536878 -0.25449175 -0.5948659 -0.28007352 -0.4451948 -0.20542796 -0.23157188
00000000: 4986 01bf 9b90 acbe ecb4 ea3d 5dff 3ebe
00000010: aa50 e13d 338f c4be ba30 debe 3557 0d3e
00000020: e0c3 1ebf ee0f c9be a875 97be df91 dcbe
00000030: b5c4 a6be 6fec 65be 47ee 82bd 583b bebe
00000040: 6736 70be 3f3a e4be 938b 25bf d48d 47be
00000050: f1df 253e d784 0abe 30ac b6be 5ea7 afbe
00000060: 89a7 aabe d646 88be 7d76 1cbf 4d1f 4dbe
00000070: 279f 5ebe 9d9a f7be 4dbf d3bc b867 e3be
00000080: 1fda 3b3e df5b 23bf c2e8 f8be 7f7a 86be
00000090: 43b3 b7be 0079 bebe 3a36 cfbe 1d54 9bbe
000000a0: 98c0 b4bd b478 3dbf d21d 7dbe bd15 94be
000000b0: fc14 8bbc 7290 07be f930 c6be fee8 5bbd
000000c0: badb dbbe ef57 9fbe da13 98be 1e81 adbe
000000d0: 032d edbe c0a0 09bf bd86 11bf 8876 27bf
000000e0: 3840 cebe 09be bbbe 71c7 94be 1001 5cbe
000000f0: c557 923e ea26 74be 15e6 58be 97a5 d7be
00000100: ee9e c2bd ef79 2cbf 39d6 52be a150 e1be
00000110: 3bc8 d3be 712c 1bbe 4ea2 b1be f2a3 b7be
00000120: 6c8b b2be b84f 10bf b591 e6be d2b0 20bf
00000130: 0d6f b4be 60aa 03bf e000 1abf 1d9a bebe
00000140: 8905 eb3d c431 9ebe 81e7 bbbe 6d57 ddbe
00000150: 6f33 0abf 9991 75be fccc ebbe e286 03bf
00000160: 80ba 08bf 6674 c9be 937c 12be e5af 223e
00000170: 0b80 40bf ab12 433e b377 5e3e 0eb0 d63d
00000180: 9ed9 3ebe a50d adbe c727 93be 0d7b 04bf
00000190: 2833 93be 4567 02bf dcfb cabe afdb c3be
000001a0: c2d8 04bf beea cfbe 5366 5cbe a154 babe
000001b0: 9fe0 52bd c99e 33be 0a73 14be ccb6 b0be
000001c0: ef48 2fbe d9c7 1dbf 469e 87be bd23 0cbf
000001d0: d0d3 d23d 7fa3 43bf 088b 14bf e7f5 e23c
000001e0: 3f83 fdbe 9702 72be a6fb 3abe 60d5 18bf
000001f0: 82fe 82be aaa9 58be 70b2 89be f36a bdbe
00000200: ed9b bebe 133b c9be bda6 c1be 3af0 efbe
00000210: 875d 11be 5745 71be 92f2 c7be 4781 06bf
00000220: 97be 54bf fe42 b7be e922 c0be e24c d2be
00000230: 875b 04be 89dd 0bbe c539 103c 7f23 90be
00000240: c7af c0be 0c4d f9be 7ede 19bf 0dfd ccbe
00000250: 040f ea3e 7c37 f4be accf a9be 087c 77be
00000260: 3560 55bf b3bd 01bf c924 2cbf 6389 49be
00000270: 73f9 c7bd a72f 17bf b9fb a13e d899 dbbe
00000280: bfaf 093f 1b3f 25bf d0d1 fabe 15ca bbbe
00000290: a921 a4be 0b68 afbe 286e 01bf c5c3 e5be
000002a0: 6655 a9be 07f3 1dbf 52cd c9bd e9d9 bebe
000002b0: bc60 473e 4bc8 71be 4ef6 88be 210c a5bd
000002c0: 340c 0ebf d973 48be cd24 aebe 5934 dabe
000002d0: 2840 fcbe d1a7 d8be 7519 acbe a722 eebe
000002e0: ea62 96be 08e0 d0bd 4569 acbe 4cce c8be
000002f0: 7596 e6be 0d31 34be 972a 87be 5454 0bbf
00000300: 8647 55be 05d4 17bf 7624 f2be 2301 90be
00000310: a37c c0be 0e40 95bd e6bb e5be e15a aebe
00000320: 9327 2dbe 86d3 0cbf 5f9a f7be 22c0 f1be
00000330: 723b b7be 9fc5 35be 2fe0 0cbf f88b aebe
00000340: 1518 c0be 00e3 0dbf 68a5 e2be 4fa3 96be
00000350: 9839 07bf 29dc c2be bf8a d4be b1b9 04bf
00000360: bef3 16bf 6171 8bbe 24f0 26be e958 2a3f
00000370: e8de 01bf 3549 1c3f d386 4d3f 285d 25be
00000380: 010c 41be 3125 e5be 88e7 c2be 41f9 23bf
00000390: 651d 0cbf bf78 bfbe b6fd 93be 3a92 3cbe
000003a0: bc18 00bf 68e1 06bf e0dc a13c 9760 bfbe
000003b0: a0cf 8fbe 6f38 913e 9275 af3d e29c 8ebd
000003c0: 7fa2 0cbd f21b 1cbf 3e85 35be 157f 9bbe
000003d0: 4d35 583f 9cbf 10bf e54c 16bf cc86 febe
000003e0: df2d fdbe f441 7bbe be4c 82be 2249 18bf
000003f0: cc65 8fbe 93f0 e3be b55b 52be 2e21 6dbe

weight f4 [4, 128]
0.64053303 0.10183279 0.0432441 -0.436854 -0.9390818 0.029676566 -0.021206632 0.3176433
-0.60920846 -0.7526552 -0.29794708 -0.67470276 -0.42850992 0.002560187 -0.3227517 0.15643565
0.16837776 -0.12844038 0.18943799 0.230635 3.6385694 0.0032259366 -1.2078915 -0.19715771
0.023318226 -0.16375136 0.011769915 -0.23148198 0.14109877 -0.9126132 1.5993733 -0.62180024
0.9632407 0.28462237 -0.6048566 -0.52910304 -0.18377787 0.14807558 0.2471005 0.5802679
-0.060565636 -0.4444371 -0.79057795 0.4961168 0.7407307 0.30063364 0.6448212 -0.8236002
-0.797707 -1.1121252 0.3098901 0.050590973 -0.23831092 0.23225327 -0.03598703 0.37418798
0.73750395 -1.581844 0.1265201 -0.09337728 0.25878134 0.7848615 -0.013024448 0.19678171
0.3934559 0.42657915 0.10397338 0.04430342 1.0801635 -0.350371 -0.20402876 0.24063326
0.76176196 -0.3015697 -0.2833744 0.8282886 0.120094076 0.43273574 -0.051198304 0.09274186
0.82820827 0.8690406 -0.55765724 -0.0016493337 0.1786037 -0.18177071 1.1291589 -0.37699842
1.7061294 -0.038559493 0.50311184 -1.2989804 -0.3286473 1.6103805 -1.9849657 0.12141682
1.4238622 -0.3329953 -0.51993847 -0.20270512 0.39486107 -1.4833136 -0.8367076 -0.18796968
0.22097823 -0.12671451 -0.15676068 0.18824129 -0.07714931 -0.1331384 0.19548836 -0.33696055
0.5208136 -1.351383 -0.10344087 0.112869956 2.4781256 0.1883734 -0.088415466 -0.04774771
0.4159678 -1.1651739 -0.043777477 -0.4081853 -0.1422767 0.3249165 0.04682096 -0.21087807
-0.3444408 0.9636908 -0.024632372 0.43656972 -0.38701707 -0.315816 -0.10579532 -0.13885534
-0.42665756 0.29736665 -0.30290452 0.5994899 -1.2352573 -0.81815434 -0.0080689015 -0.27750182
0.018233614 0.13689291 -0.19236626 -0.10387866 -2.4523203 0.3144326 -0.51804763 -0.35151735
-0.4736665 0.63048375 -0.25765872 -0.88179576 0.2574557 -0.3979578 -3.4066358 -0.8255961
2.447541 -0.21424103 0.96089816 -0.60450804 -0.31162363 -0.28802055 0.54673487 -0.3099276
-0.09895493 -0.22121045 0.569923 -0.42815802 -0.59211856 -0.15223931 0.46577272 0.0072541004
0.56398875 -0.60836977 0.09353868 0.067003354 0.28955916 0.5812007 0.11337008 -0.61682034
-0.55799615 -1.379506 -0.90189224 -0.7598122 0.11587479 -1.5599077 0.31872123 0.071463495
-0.45496058 -0.10926483 0.015356905 0.046598025 0.31121477 0.26932153 0.5287279 -0.25743294
-0.98916894 0.18149404 0.38535362 -0.47819296 0.07776734 0.25992534 0.21573716 -0.08341207
0.84544706 -1.1728295 -0.28151706 0.49297047 0.5269057 0.07352932 -1.34383 0.49523807
-0.5991568 0.32601508 -0.5733351 3.0134091 -0.07742808 -2.0156658 -2.4274015 1.1950395
0.96396375 0.033541206 0.4213432 -0.15156212 -0.311127 1.2944851 -1.166725 0.97544676
-0.33878335 0.21362662 -0.7663007 -1.0104468 0.74481905 -0.113957815 0.25188056 0.019167315
1.3446566 -0.78311753 0.011642496 0.28060743 0.6082733 0.11181753 -0.19064239 0.385085
-0.07935923 0.69599617 0.1267336 -0.52631557 1.3158875 0.60872066 -0.04824296 -0.07655956
00000000: f9f9 233f b68d d03d ba20 313d 54ab dfbe
00000010: aa67 70bf 451c f33c 88b9 adbc 25a2 a23e
00000020: 16f5 1bbf 03ae 40bf 858c 98be 52b9 2cbf
00000030: a765 dbbe cfc8 273b b63f a5be ab30 203e
00000040: 386b 2c3e e085 03be 08fc 413e 952b 6c3e
00000050: 52de 6840 3c6a 533b 309c 9abf b6e3 49be
00000060: dd05 bf3c 70ae 27be 9ad6 403c 9d09 6dbe
00000070: 327c 103e 05a1 69bf 44b8 cc3f 4d2e 1fbf
00000080: f196 763f 06ba 913e e2d7 1abf 4c73 07bf
00000090: 4430 3cbe 20a1 173e ea07 7d3e 708c 143f
000000a0: ac13 78bd 428d e3be 5163 4abf 0503 fe3e
000000b0: 87a0 3d3f a7ec 993e 0113 253f 76d7 52bf
000000c0: 8736 4cbf 1e5a 8ebf eaa9 9e3e 7b38 4f3d
000000d0: c707 74be cdd3 6d3e 2367 13bd 9195 bf3e
000000e0: 0fcd 3c3f dd79 cabf 7c8e 013e 963c bfbd
000000f0: fd7e 843e afec 483f 7f64 55bc 2581 493e
00000100: 0d73 c93e 9568 da3e ffef d43d 8177 353d
00000110: cc42 8a3f d463 b3be eaec 50be 9168 763e
00000120: d502 433f 5867 9abe 7316 91be b90a 543f
00000130: e2f3 f53d 8a8f dd3e 50b5 51bd 72ef bd3d
00000140: 7505 543f 7279 5e3f a0c2 0ebf 752e d8ba
00000150: e3e3 363e 1a22 3abe 4788 903f f005 c1be
00000160: 7362 da3f 8ff0 1dbd f0cb 003f fd44 a6bf
00000170: 7544 a8be f320 ce3f 5b13 febf 62a9 f83d
00000180: 1e41 b63f 5c7e aabe b01a 05bf ee91 4fbe
00000190: 3b2b ca3e 38dd bdbf 7832 56bf 207b 40be
000001a0: 1e48 623e 73c1 01be df85 20be 53c2 403e
000001b0: 7500 9ebd 6f55 08be 1a2e 483e 1886 acbe
000001c0: 0a54 053f 1efa acbf cfd8 d3bd 5d28 e73d
000001d0: 9c99 1e40 f5e4 403e 2b13 b5bd 1a93 43bd
000001e0: bbf9 d43e 6b24 95bf 0350 33bd aafd d0be
000001f0: fcb0 11be 755b a63e 56c7 3f3d 6cf0 57be
00000200: 8b5a b0be 71b4 763f d4c9 c9bc 1186 df3e
00000210: 1a27 c6be a2b2 a1be 37ab d8bd 1830 0ebe
00000220: dc72 dabe 7140 983e 4d16 9bbe 2c78 193f
00000230: e91c 9ebf 9072 51bf 6d33 04bc b814 8ebe
00000240: a95e 953c a82d 0c3e a9fb 44be 56be d4bd
00000250: d1f2 1cc0 4ffd a03e c59e 04bf 15fa b3be
00000260: 6a84 f2be 6267 213f d8eb 83be 5ebd 61bf
00000270: 3cd1 833e 20c1 cbbe 5206 5ac0 445a 53bf
00000280: 83a4 1c40 0062 5bbe 6cfd 753f 0ac1 1abf
00000290: 228d 9fbe 6e77 93be d1f6 0b3f d5ae 9ebe
000002a0: e2a8 cabd fe84 62be 79e6 113f 8737 dbbe
000002b0: 1595 17bf 9fe4 1bbe c379 ee3e ceb3 ed3b
000002c0: 9161 103f 1fbe 1bbf 3591 bf3d 0e39 893d
000002d0: 1941 943e 92c9 143f 932e e83d f0e7 1dbf
000002e0: d6d8 0ebf a793 b0bf 69e2 66bf 0d83 42bf
000002f0: c34f ed3d 0eab c7bf 6e2f a33e 745b 923d
00000300: 98f0 e8be 3dc6 dfbd 879b 7b3c 92dd 3e3d
00000310: 8b57 9f3e 83e4 893e b65a 073f 40ce 83be
00000320: 2d3a 7dbf 93d9 393e 124d c53e b5d5 f4be
00000330: 7c44 9f3d ef14 853e 34ea 5c3e f3d3 aabd
00000340: 386f 583f 471f 96bf 0123 90be a066 fc3e
00000350: 4be3 063f 8a96 963d 9f02 acbf d88f fd3e
00000360: 5762 19bf 73eb a63e 17c6 12bf b2db 4040
00000370: 9d92 9ebd ab00 01c0 8c5a 1bc0 0ef7 983f
00000380: 54c6 763f 8162 093d 4cba d73e 1a33 1bbe
00000390: 0a4c 9fbe b0b1 a53f 3f57 95bf e1b6 793f
000003a0: 0375 adbe f0c0 5a3e 482c 44bf 5256 81bf
000003b0: 76ac 3e3f b762 e9bd 7df6 803e c604 9d3c
000003c0: b51d ac3f 647a 48bf 2bc0 3e3c c7ab 8f3e
000003d0: cdb7 1b3f 9700 e53d c237 43be dc29 c53e
000003e0: 1887 a2bd ce2c 323f 74c6 013e 9ebc 06bf
000003f0: 006f a83f 1ed5 1b3f 699a 45bd 42cb 9cbd

bias f4 [4]
0.013525181 -0.22077295 -0.14214307 0.2555773
00000000: b998 5d3c 4e12 62be f48d 11be 07db 823e
